Model: "sequential"
_________________________________________________________________
 Layer (type)                Output Shape              Param #
=================================================================
 conv2d (Conv2D)             (None, 32, 32, 16)        448

 conv2d_1 (Conv2D)           (None, 32, 32, 16)        2320

 max_pooling2d (MaxPooling2  (None, 16, 16, 16)        0
 D)

 conv2d_2 (Conv2D)           (None, 16, 16, 32)        4640

 conv2d_3 (Conv2D)           (None, 16, 16, 32)        9248

 max_pooling2d_1 (MaxPoolin  (None, 8, 8, 32)          0
 g2D)

 dropout (Dropout)           (None, 8, 8, 32)          0

 flatten (Flatten)           (None, 2048)              0

 dense (Dense)               (None, 10)                20490

=================================================================
Total params: 37146 (145.10 KB)
Trainable params: 37146 (145.10 KB)
Non-trainable params: 0 (0.00 Byte)
_________________________________________________________________
Epoch 1/20
WARNING:tensorflow:From C:\Users\Zenith\AppData\Local\Programs\Python\Python310\lib\site-packages\keras\src\utils\tf_utils.py:492: The name tf.ragged.RaggedTensorValue is deprecated. Please use tf.compat.v1.ragged.RaggedTensorValue instead.
…
